{"format":"layers-model","generatedBy":"keras v3.15.0","convertedBy":"TensorFlow.js Converter v4.22.0","modelTopology":{"keras_version":"3.15.0","model_config":{"class_name":"Sequential","config":{"name":"CNN_Lenguaje_Senas","trainable":true,"dtype":"float32","layers":[{"class_name":"InputLayer","config":{"dtype":"float32","sparse":false,"ragged":false,"name":"input_layer","batch_input_shape":[null,64,64,1]}},{"class_name":"Conv2D","config":{"name":"Convolucion_1","trainable":true,"dtype":"float32","filters":32,"kernel_size":[3,3],"strides":[1,1],"padding":"valid","data_format":"channels_last","dilation_rate":[1,1],"groups":1,"activation":"relu","use_bias":true,"kernel_initializer":{"class_name":"GlorotUniform","config":{"seed":null,"input_axes":null,"output_axes":null}},"bias_initializer":{"class_name":"Zeros","config":{}},"kernel_regularizer":null,"bias_regularizer":null,"activity_regularizer":null,"kernel_constraint":null,"bias_constraint":null}},{"class_name":"MaxPooling2D","config":{"name":"Pooling_1","trainable":true,"dtype":"float32","pool_size":[2,2],"padding":"valid","strides":[2,2],"data_format":"channels_last"}},{"class_name":"Conv2D","config":{"name":"Convolucion_2","trainable":true,"dtype":"float32","filters":64,"kernel_size":[3,3],"strides":[1,1],"padding":"valid","data_format":"channels_last","dilation_rate":[1,1],"groups":1,"activation":"relu","use_bias":true,"kernel_initializer":{"class_name":"GlorotUniform","config":{"seed":null,"input_axes":null,"output_axes":null}},"bias_initializer":{"class_name":"Zeros","config":{}},"kernel_regularizer":null,"bias_regularizer":null,"activity_regularizer":null,"kernel_constraint":null,"bias_constraint":null}},{"class_name":"MaxPooling2D","config":{"name":"Pooling_2","trainable":true,"dtype":"float32","pool_size":[2,2],"padding":"valid","strides":[2,2],"data_format":"channels_last"}},{"class_name":"Flatten","config":{"name":"Aplanado","trainable":true,"dtype":"float32","data_format":"channels_last"}},{"class_name":"Dense","config":{"name":"dense","trainable":true,"dtype":"float32","units":64,"activation":"relu","use_bias":true,"kernel_initializer":{"class_name":"GlorotUniform","config":{"seed":null,"input_axes":null,"output_axes":null}},"bias_initializer":{"class_name":"Zeros","config":{}},"kernel_regularizer":null,"bias_regularizer":null,"kernel_constraint":null,"bias_constraint":null}},{"class_name":"Dropout","config":{"name":"dropout","trainable":true,"dtype":"float32","rate":0.5,"seed":null,"noise_shape":null}},{"class_name":"Dense","config":{"name":"dense_1","trainable":true,"dtype":"float32","units":10,"activation":"softmax","use_bias":true,"kernel_initializer":{"class_name":"GlorotUniform","config":{"seed":null,"input_axes":null,"output_axes":null}},"bias_initializer":{"class_name":"Zeros","config":{}},"kernel_regularizer":null,"bias_regularizer":null,"kernel_constraint":null,"bias_constraint":null}}],"build_input_shape":[null,64,64,1]},"build_config":{"input_shape":[null,64,64,1]},"compile_config":{"optimizer":{"class_name":"Adam","config":{"name":"adam","learning_rate":0.0010000000474974513,"weight_decay":null,"clipnorm":null,"global_clipnorm":null,"clipvalue":null,"use_ema":false,"ema_momentum":0.99,"ema_overwrite_frequency":null,"loss_scale_factor":null,"gradient_accumulation_steps":null,"beta_1":0.9,"beta_2":0.999,"epsilon":1e-07,"amsgrad":false}},"loss":"categorical_crossentropy","loss_weights":null,"metrics":["accuracy"],"weighted_metrics":null,"run_eagerly":false,"steps_per_execution":1,"jit_compile":false}}},"weightsManifest":[{"paths":["group1-shard1of3.bin","group1-shard2of3.bin","group1-shard3of3.bin"],"weights":[{"name":"Convolucion_1/kernel","shape":[3,3,1,32],"dtype":"float32"},{"name":"Convolucion_1/bias","shape":[32],"dtype":"float32"},{"name":"Convolucion_2/kernel","shape":[3,3,32,64],"dtype":"float32"},{"name":"Convolucion_2/bias","shape":[64],"dtype":"float32"},{"name":"dense/kernel","shape":[12544,64],"dtype":"float32"},{"name":"dense/bias","shape":[64],"dtype":"float32"},{"name":"dense_1/kernel","shape":[64,10],"dtype":"float32"},{"name":"dense_1/bias","shape":[10],"dtype":"float32"}]}]}